Code/UBERMODEL/models/regressive_lstm_norm_t1.pth (torch, 230212 bytes, 10 tensors)

lstm.weight_ih_l0 f4 [256, 11]
000000 f2 30 ca bf 2a 1d 4d 3e cc 67 b8 bf 2a 86 1c be
       -1.5796187 0.20030656 -1.4406676 -0.15285555
000010 0d d5 ee 3f 13 dd 1b 3f 2a a1 95 3e aa d1 15 3f
       1.8658768 0.6088421 0.2922452 0.58523047
000020 0e ed c2 be 4d 22 09 bf ab 7a 71 bf ad c2 2f 3f
       -0.38071483 -0.53567964 -0.943278 0.68656427
000030 35 d7 10 3e 21 1c c4 be cd 76 50 bf 3a 55 93 3f
       0.14144595 -0.3830271 -0.81431276 1.1510384
000040 62 dc 08 bf 90 c3 7e bf 59 56 ce 3e 3f ff f2 3e
       -0.5346128 -0.99517155 0.40300253 0.47460362
000050 5d 88 24 3f 7f 97 95 bf 08 c2 c0 3e e9 35 94 3a
       0.64270574 -1.1686858 0.37648034 0.001130757
000060 b6 89 56 bf 95 72 0c be 7a 9d ad 3e e6 a0 77 bf
       -0.8380388 -0.13715585 0.33909208 -0.96729887
000070 94 52 ae 3f 44 ec 4a 3f fc a9 91 3e 0f 10 85 bd
       1.3618951 0.7926676 0.2845 -0.064972036
000080 af fc 48 be ef 69 8a 3d da 0b 54 bf 61 a3 de be
       -0.19627641 0.067584865 -0.82830584 -0.43484023
000090 81 40 71 bf b3 09 a0 3f f4 80 3b bf f6 40 f9 3f
       -0.9423905 1.250296 -0.7324364 1.947295
0000a0 e8 ad ac 3e 32 01 7e bf c1 f0 66 bd d0 49 b2 be
       0.3372643 -0.99220574 -0.056381945 -0.3482194
0000b0 1f c4 c0 bd 89 cc 35 3e 10 7a d8 3e 92 b4 69 3e
       -0.09412407 0.17753805 0.42280626 0.22822788
0000c0 e0 bb bc be 9c e4 8b bd f5 84 09 be f7 8b 64 be
       -0.36862087 -0.06830713 -0.13429625 -0.22319017
0000d0 31 35 53 3e 0f 62 87 3c 71 74 cd 3e 0e bb af be
       0.2062576 0.01652625 0.401279 -0.343224
0000e0 dc fd 96 3d 1a 21 16 3f 22 d0 07 3e dd 6f 4f bf
       0.073726386 0.5864426 0.1326299 -0.81030065
0000f0 86 17 e4 b9 36 5f 16 3e 6a 63 ea ba 59 bd 7a 3f
       -0.00043505075 0.14684758 -0.0017882411 0.9794517
000100 e7 b5 a1 3e 93 14 19 3f 4c 72 ce 3f 5e 38 12 bf
       0.31584093 0.5979702 1.6128631 -0.5711726
000110 e4 42 0b be 75 4f db 3e 39 c6 41 be 27 80 c0 be
       -0.13599735 0.42834058 -0.18923272 -0.37597772
000120 3b 49 15 3f ce d4 ac bd e6 b8 e4 3f fa 2d 27 be
       0.58314866 -0.08439027 1.7868927 -0.16326132
000130 ab 8f 27 3f c8 f6 87 3e 6e 86 b1 be 76 d9 8d bf
       0.65453595 0.26555467 -0.34672874 -1.1081989
000140 f0 5e 06 bf 6d 78 01 3e c2 72 7f 3f 2b 77 88 3c
       -0.52488613 0.12643595 0.9978448 0.016658386
000150 51 fc 04 be 29 8a 9c bc b9 9d f5 3d cc 97 9f bd
       -0.12986876 -0.019108849 0.11992974 -0.07792625
000160 d1 34 06 3f 57 71 16 bf 72 ce 50 be 8d 1e 87 3e
       0.5242434 -0.5876669 -0.20391253 0.26390496
000170 67 f1 14 bf e1 5d 10 c0 78 35 8b 3f 12 6b e2 3e
       -0.5818085 -2.25573 1.0875692 0.44222313
000180 fa 11 d9 bd 0a f1 f2 3d cf 98 c5 be 00 bd 94 3d
       -0.10599132 0.11862381 -0.38593146 0.072626114
000190 d7 45 bc 3e 0c ef 1a bf e1 a0 87 be 27 aa 84 bf
       0.36772034 -0.60521007 -0.26489928 -1.0364426
0001a0 0c 3e be bf 17 a7 99 3f 43 d8 d0 3d 9b f4 cb 3e
       -1.4862685 1.2004117 0.10197499 0.39835057
0001b0 78 b1 3f be d2 21 61 3d 09 22 88 3d cf df 97 3f
       -0.18720043 0.054963894 0.06647117 1.1865176
0001c0 fd 65 4f 3f bd 95 46 be 24 f8 ff 3f 7f b3 34 be
       0.81014997 -0.19393058 1.9997602 -0.17646597
0001d0 6d 8a 5d 3c e2 fb ba be 88 54 32 3f 3c 57 6b 3f
       0.013521773 -0.36520296 0.69660234 0.91929984
0001e0 4e db 96 bf 92 66 10 3f 3c 56 c4 be 3f e6 79 3f
       -1.1785676 0.5640651 -0.38347042 0.9761695
0001f0 05 fe 4a be 4a 4d 32 bf 74 e8 ac 3d b9 11 41 bf
       -0.19823463 -0.69649184 0.084427744 -0.7541767
000200 a6 34 20 be fc 71 00 3f f9 ac e6 3d f2 72 9e 3e
       -0.15645084 0.50173926 0.11263461 0.3094707
000210 f5 a7 c5 3e 7d c1 97 3e 7d 98 10 40 ec 84 3f bc
       0.38604704 0.29639807 2.2593071 -0.011689406
000220 3c 99 53 3e e2 e1 29 bf 39 fb 23 3f 49 91 d7 3e
       0.20663923 -0.66360295 0.6405521 0.4210303
000230 ba 40 29 3f 84 7b 17 bf a7 16 95 bf e7 92 2a 3f
       0.6611439 -0.59172845 -1.1647538 0.66630405
000240 9b ec e3 be 8d 7d 8b 3f 42 ef 85 3e 5b 9d bf 3e
       -0.44516453 1.089769 0.26159102 0.3742474
000250 21 a1 84 be 6f 69 a3 3f aa 61 42 3f 3b 3a 49 3f
       -0.25904182 1.2766551 0.75930274 0.7860448
000260 dd a7 4f 3e 5b a8 28 3f 7b 0d 93 3e 73 67 c5 be
       0.20278879 0.6588189 0.28721222 -0.38555488
000270 82 bc 9e 3f cc 3c 1e bf ae b4 d5 be 73 cb a7 be
       1.2401278 -0.6181152 -0.4173941 -0.32772407
000280 ad 6f c8 3c 20 78 c6 3c 4a af 9a be 13 b1 c9 be
       0.024467314 0.024227202 -0.3021186 -0.3939291
000290 e0 6a 8d 3e 19 b3 85 bf 78 8f 9d 3e a0 b9 91 bf
       0.27620602 -1.0445281 0.3077352 -1.1384773
0002a0 c8 fc c0 be 78 e1 f5 be 00 48 87 be 7a da 36 bf
       -0.37692857 -0.48023582 -0.2642212 -0.7142712
0002b0 93 7f c8 3c 2e c4 1b 3f 2a f9 dc bf 1a 38 b7 be
       0.024474895 0.6084622 -1.7263539 -0.3578499
0002c0 d5 85 32 bd 93 6b ba 3e c7 7b 3d 3e 1c 09 5a 3f
       -0.043584663 0.36410198 0.18504249 0.8517015
0002d0 c2 36 db be 56 e8 8a 3f 1c 6f 91 be 8d 56 a5 bc
       -0.42815214 1.0852153 -0.28405082 -0.020182872
0002e0 91 b7 9f 3e 9a 37 76 3d 2e 35 3b bd 62 f7 10 be
       0.31194738 0.06011162 -0.045705013 -0.14156869
0002f0 82 5e 33 3e 82 09 7d 3e 0a b4 d1 3d 59 f8 8d bd
       0.1751652 0.24710658 0.10239418 -0.06932134
000300 3b 42 ca bd d2 53 a0 be 05 ff 02 3f 7f 7f ff 3e
       -0.09875914 -0.3131395 0.5117038 0.4990196
000310 24 90 cc 3e f8 8a 74 3d 2f 24 e8 be 48 2f 7f bd
       0.3995372 0.059702843 -0.45340106 -0.06230095
000320 7c 3c d2 bf 03 e8 88 3f 81 a7 ee bf 3c 22 21 3f
       -1.6424708 1.0695804 -1.8644868 0.6294286
000330 ce 7f 80 bf 83 bd 93 3e 3e a4 85 3e 99 2c 46 3f
       -1.0039003 0.28855523 0.2610187 0.774118
000340 ef a7 8e bd 3a d3 18 bf a7 e4 1b bf cd ba 84 be
       -0.069656245 -0.59697306 -0.6089577 -0.25923768
000350 ef 37 0b bf c9 72 1f 3e 47 61 80 3d 5c 57 d0 3d
       -0.5438222 0.15571131 0.06268554 0.101729125
000360 7c d3 0d 3f 5f 8d 53 3e bb f2 b6 bf 28 9a 42 3b
       0.55400825 0.20659398 -1.4292825 0.0029693935
000370 03 fc d7 be 02 35 9e be 54 a8 62 3e 9b 75 c4 be
       -0.42184457 -0.30899817 0.22134525 -0.38370976
000380 e7 7f e9 3e 98 27 d8 3d 69 ff d0 be b7 28 9a 3f
       0.45605394 0.10554427 -0.40819862 1.2043675
000390 f6 72 1c bc 44 a4 7c bf c6 4e c0 3e 2f 9d c4 3d
       -0.009548893 -0.9868815 0.375601 0.09600293
0003a0 bb 56 a7 bf 07 a0 b8 be 03 a1 be bf 24 8e 93 be
       -1.3073343 -0.3605959 -1.4892887 -0.28819382
0003b0 b5 5c 0a 3f b3 5f 42 3d 3a ce 6b 3f 97 83 0f bf
       0.5404771 0.047454547 0.9211155 -0.56060165
0003c0 2e 07 26 bf 42 79 d4 3e 21 80 16 bf a3 2d c6 be
       -0.64854705 0.41498762 -0.5878926 -0.38706693
0003d0 47 68 ca be a3 9e 63 3f c7 ee 51 3f 8d 19 81 bf
       -0.39532682 0.88913935 0.8200497 -1.0085922
0003e0 b5 3d db be e6 fd cd 3e f7 6a 24 3f d9 33 4e bf
       -0.42820516 0.40232772 0.64225715 -0.80547863
0003f0 23 a5 a5 bc ff e9 81 3f 20 e9 25 3e 62 25 b0 3d
       -0.020220345 1.0149535 0.16202211 0.0860088

lstm.weight_hh_l0 f4 [256, 64]
000000 75 d6 88 bf 2a 3f 5a bf 35 ac ca bf 89 73 13 40
       -1.0690447 -0.8525263 -1.5833803 2.3039267
000010 ae 43 89 be 67 fc dd be ab 18 54 3d d7 20 3f 3b
       -0.26809448 -0.4335663 0.051781338 0.0029163861
000020 e0 4c a8 3f 9a 27 8f 3f ef 88 df be c5 4a c7 bc
       1.314846 1.118396 -0.4365916 -0.024327645
000030 e0 2e fa 3e 15 93 59 3f 88 25 7e be 36 fa c0 3f
       0.48863888 0.84990054 -0.24819005 1.5076358
000040 45 1c 7f 3f 55 d8 5a bf 2e cb 01 3e f6 57 9a bd
       0.9965251 -0.85486346 0.12675163 -0.075363085
000050 e9 10 80 bf fc 49 c6 bd 52 97 2e c0 2e 4a 01 c0
       -1.000516 -0.0968208 -2.7279859 -2.0201526
000060 58 57 b3 bf 39 39 80 bf de 29 36 3f 2b e2 23 3e
       -1.401103 -1.0017463 0.71157634 0.16004245
000070 95 37 e4 bd d6 28 00 3f c3 e5 b2 be 09 43 37 bf
       -0.11143414 0.5006231 -0.3494092 -0.7158666
000080 1a 33 99 bf 06 40 07 3f 90 cd 2c 3f 44 68 31 bf
       -1.196872 0.52832067 0.67501163 -0.6929972
000090 d4 cc 03 3f 6d d3 de be 30 7b ca be a5 6d bd 3e
       0.5148442 -0.4352068 -0.3954711 0.36997715
0000a0 9c c3 f1 be 20 ac 93 bf 2d 6e ae bf e5 f3 6c 3f
       -0.4721955 -1.1536903 -1.3627373 0.92559654
0000b0 31 db 12 3f 88 44 dd be 53 40 d9 3c 26 d7 2b 3f
       0.5736571 -0.43216348 0.02651993 0.67125165
0000c0 bf 62 20 bf f6 5e 6b 3f 58 ed 57 be 21 0d ae 3e
       -0.62650675 0.91941774 -0.21086633 0.33994392
0000d0 ba 86 7c bf ff 55 bd 3e df 60 df be ca 91 5b bf
       -0.98643076 0.36979672 -0.43628594 -0.8576933
0000e0 59 07 0b 3f 37 3c 1d 3e a3 e8 42 bf 75 36 07 3f
       0.54308087 0.15355001 -0.76136225 0.5281747
0000f0 20 fa c2 3f 84 4e 59 3e 30 63 89 bf 3a 1d 8e bf
       1.5232582 0.21221358 -1.0733395 -1.1102669
000100 2a 27 0f 3f 1e 0b a7 3f c2 02 83 3f 3c 5a b6 be
       0.55919135 1.3050268 1.0235217 -0.35615718
000110 65 48 06 3e 26 d7 b2 3d f2 b2 c3 3f 31 9d 87 bf
       0.13113554 0.087324426 1.5288985 -1.0594846
000120 b5 29 cb 3e 83 72 65 be 7d ed c7 3e 73 d3 52 3e
       0.39680257 -0.22406964 0.39048377 0.20588474
000130 b9 29 0b bf 92 55 9e bf 2a 0c ef be e0 2a c5 bf
       -0.5436054 -1.2369864 -0.46688968 -1.540371
000140 a8 63 ae 3f 7a 76 33 be 15 97 11 bf 41 80 45 bf
       1.3624163 -0.17525664 -0.5687116 -0.77148825
000150 dd 0c 46 bf 98 e9 96 be 9c 4c d5 3e 21 b5 20 3f
       -0.7736338 -0.29475093 0.4166001 0.6277638
000160 c9 f2 93 3e b2 bc 80 bf 9c a3 13 bf 91 04 01 bf
       0.28896168 -1.0057585 -0.57671523 -0.5039759
000170 7e 39 81 3e e3 f5 e9 be 83 23 11 40 0b e9 99 bf
       0.25239176 -0.4569541 2.2677925 -1.2024244
000180 0b fc bc 3d 89 99 0c 3f a8 76 cb bf 7c c3 76 3f
       0.09227761 0.54921776 -1.5895586 0.96392035
000190 b6 df 86 3f 09 6f b6 3f e7 d8 40 3f 51 c2 33 3f
       1.0537021 1.4252635 0.75330967 0.7021838
0001a0 77 9b a3 3e c8 e2 16 bf 3a 47 e3 be 36 fe 59 3f
       0.31954548 -0.5893979 -0.4439028 0.8515352
0001b0 f0 bf 13 3f c5 51 44 3f c9 ca 38 be f8 c2 53 bf
       0.5771475 0.7668727 -0.18046106 -0.82719374
0001c0 c0 9f a7 bf d6 00 4e bf 86 78 8a be 47 a0 d2 bf
       -1.3095627 -0.80470026 -0.27045077 -1.6455163
0001d0 23 0b 20 3f 49 fb 28 3c c0 f9 65 be 87 73 20 3f
       0.62516993 0.010313817 -0.22458553 0.6267628
0001e0 38 4a 86 3f 95 31 01 3f c6 05 55 bf 24 11 16 3d
       1.04914 0.5046628 -0.83211935 0.03663744
0001f0 ac 48 a8 3e 8f f4 8b 3d e1 23 1a 3e 1d 6e 89 3e
       0.32867944 0.06833755 0.15052749 0.26841822
000200 6b b0 91 3f f0 e4 ad 3e b1 d7 dd 3e ea d2 ec 3f
       1.1381963 0.33963728 0.43328622 1.8501866
000210 64 2d ed be 48 79 2d 3f 0a 6d 83 bf 26 9f ef be
       -0.46323693 0.67763186 -1.0267651 -0.46801108
000220 d7 d7 e9 be 0d a5 54 3f 74 07 10 3f 6e d6 ec 3d
       -0.45672485 0.8306435 0.5626137 0.11564337
000230 11 5f ca 3f db ed a5 bf b7 3b e0 3f f4 ba 89 3d
       1.5810262 -1.2963213 1.7518224 0.067251116
000240 59 40 87 be 16 8e 5d bf 02 29 69 be 7a c0 b6 bf
       -0.2641628 -0.8654493 -0.2276955 -1.4277489
000250 a9 18 6b bf df 4a 1e 3e a4 2f 32 3e d4 be 81 be
       -0.91834503 0.15458249 0.17400986 -0.25340903
000260 07 ff 18 3e 09 6b 73 be 65 33 17 bf f1 22 19 3e
       0.14941035 -0.237713 -0.59062797 0.14954735
000270 3a 81 d5 3f 2a 28 01 3f d0 88 62 3f 4e 24 fa 3f
       1.6680062 0.5045191 0.8849001 1.9542329
000280 9b 14 61 3f 2c bc 1a be cd 11 46 bf 3a 57 c6 3e
       0.87922066 -0.15110844 -0.7737091 0.38738424
000290 6b a4 ee be 26 1c 76 bf 83 d6 6f be ab c1 37 bf
       -0.46609816 -0.961367 -0.23421673 -0.7177989
0002a0 dc 64 e7 be 66 4e 8d bc 61 2d ae 3e 89 5a 35 3f
       -0.45194137 -0.017249297 0.34018996 0.7084127
0002b0 e0 e3 29 be 3a f6 bf be fe ba 60 3f 39 ec 59 3f
       -0.16590834 -0.37492543 0.8778533 0.8512607
0002c0 9d 57 01 c0 58 d1 61 be e1 e9 44 3f 7f cc 87 3f
       -2.0209725 -0.22052515 0.7691937 1.0609282
0002d0 f5 89 8a 3e 23 51 6b 3e d6 b6 1d bd 77 0b c9 be
       0.27058378 0.2298017 -0.038504444 -0.3926656
0002e0 fe 47 ab be c2 78 a1 3c 34 be c8 bf 62 ff a4 3f
       -0.33453363 0.019710902 -1.5683045 1.2890437
0002f0 31 c4 2d bf 17 75 2a c0 74 03 9c bf 8d 4f ca bf
       -0.6787749 -2.6633966 -1.2188554 -1.5805527
000300 ea 41 5a bf 1d bf bc bd 54 31 56 bf 89 57 b7 3e
       -0.85256827 -0.092161395 -0.8366902 0.35808972
000310 dc b4 76 bf e6 a4 36 3f 4d 11 db bc 41 58 af be
       -0.9636972 0.71345365 -0.026741648 -0.3424702
000320 4e 17 03 c0 73 7d 23 3e 17 22 a1 3f 82 17 10 bf
       -2.0482974 0.15965824 1.2588528 -0.5628587
000330 d7 b1 30 3f e4 8f 26 c0 9c 46 20 3e bc 55 15 c0
       0.6902136 -2.6025324 0.15651935 -2.3333578
000340 cf fd 41 3f 96 56 ce be 7c 2c a3 bf 57 b9 14 3f
       0.75777906 -0.40300435 -1.274795 0.58095306
000350 e4 22 6b bf cc 09 29 3d f4 49 c0 3f 0b 4e b8 bf
       -0.91850114 0.04126911 1.5022569 -1.4398817
000360 a7 79 5e bf d7 c7 0a bf f1 81 f0 bd 67 0e 77 bf
       -0.86904377 -0.5421118 -0.11743534 -0.9650635
000370 ef 98 b3 bf 73 f3 4f 3f 55 70 39 3f 67 05 cc 3f
       -1.4031047 0.8123085 0.7243703 1.5939149
000380 f3 e3 05 bf c4 99 ae 3e aa be 30 be 00 d7 39 3f
       -0.5230095 0.3410169 -0.17260233 0.7259369
000390 7e d6 1c 3f 03 6c ce 3f 6d ad 87 bf 8b eb 23 bd
       0.6126479 1.6126713 -1.05998 -0.040019553
0003a0 2c da a9 be f7 ac c4 be 29 72 2d 3e 89 a7 2e 3f
       -0.33174264 -0.38413212 0.1693808 0.6822439
0003b0 fa e2 97 be cf 73 02 3f 03 68 38 be 82 1d 10 3f
       -0.29665357 0.5095796 -0.18008427 0.56295025
0003c0 30 d7 45 bf 41 77 16 bf 05 58 ce 3d 00 25 92 bf
       -0.77281475 -0.5877572 0.10075382 -1.1417542
0003d0 7c 09 7f 3e 91 9b f7 3e 1d 27 ac bf a7 c0 3d 3e
       0.24905962 0.48360875 -1.3449436 0.18530522
0003e0 74 48 9a 3f a5 b5 c3 be 90 c2 c3 3f e8 01 0e 3f
       1.2053361 -0.3822452 1.5293751 0.5547166
0003f0 ac b4 47 bf a7 98 2a bf af 23 aa 3f 72 cb 03 3f
       -0.7801006 -0.6663918 1.329214 0.5148231

lstm.bias_ih_l0 f4 [256]
000000 4f df 82 bf 22 e8 86 bf 56 8b 90 bf ad b9 b9 3c
       -1.0224398 -1.0539591 -1.1292522 0.022671545
000010 cf 59 b8 be 2d b5 a9 bf 1b 5e 8e bf de 97 ad bf
       -0.3600602 -1.3258415 -1.1122469 -1.3561971
000020 69 66 62 bf 2d 23 d0 bf e3 aa dd bf ba cc 58 bf
       -0.88437515 -1.6260735 -1.7317775 -0.8468739
000030 cb e2 98 bf ad 4a b4 bf 62 f0 29 bf a2 99 3e bf
       -1.1944212 -1.4085289 -0.6638242 -0.74453175
000040 6a 61 b3 3e 45 c9 07 be 57 bf 83 bf d2 2a 59 bf
       0.3503526 -0.13260372 -1.0292767 -0.84830964
000050 fe 47 9f bf 37 0a d9 be 58 57 8e bf ab fc 8a bf
       -1.2443845 -0.42390606 -1.1120405 -1.0858358
000060 62 85 f8 be 71 8f 61 bf 55 07 d8 be eb 43 be bf
       -0.48539263 -0.881095 -0.42193094 -1.4864477
000070 5d 80 53 bf 1c 1f 96 be c9 01 82 bf 4b 35 3c 3c
       -0.8261774 -0.2932061 -1.0156795 0.011487315
000080 b3 68 6e bf 4a 38 75 bf 7f 1b 98 bf ac 87 2e bf
       -0.9312851 -0.95789015 -1.1883391 -0.6817577
000090 89 d2 91 bf af 1c 01 bf 24 99 a9 be 4a b5 94 be
       -1.1392375 -0.5043439 -0.3312465 -0.29044563
0000a0 b6 7a 97 bf 70 3d 0d 3f e2 08 c5 be 5e 15 08 c0
       -1.1834323 0.5517187 -0.3848334 -2.1263041
0000b0 81 39 30 3d e5 f1 f5 be af e5 47 bf d1 f7 a6 bf
       0.04302359 -0.48036113 -0.78084844 -1.3044378
0000c0 31 1b 81 bf 58 07 d6 be b4 f5 67 bf 3d 39 9e bf
       -1.0086423 -0.41802478 -0.9060929 -1.2361218
0000d0 bc ef 26 be 8a ec 97 bf 05 f1 a6 bf 8b 6f 03 bf
       -0.16302389 -1.1869061 -1.3042303 -0.51342076
0000e0 95 41 8e bf ac ef 4c bd a7 44 16 3e a0 cf 1f bf
       -1.1113764 -0.050033256 0.14674626 -0.62426186
0000f0 b8 a7 ac bf ac ca 25 bf b2 33 22 bf c6 0b 4e bf
       -1.3488684 -0.6476238 -0.6336013 -0.80486715
000100 a0 40 1a bf ad e9 8e 3f a2 0e fd 3e b9 50 d2 be
       -0.6025486 1.1165062 0.49425226 -0.41077211
000110 d3 50 c0 3f 45 a7 19 bc ec 56 49 3f 72 93 87 bf
       1.5024666 -0.009378259 0.7864826 -1.0591872
000120 bd 67 5d 3e 42 b0 4d 3f 48 cb ee 3e a0 00 0e be
       0.21621604 0.80347073 0.46639466 -0.13867426
000130 21 13 a3 be 10 ab f7 be 1f 60 ae 3e 1a 43 28 3d
       -0.31850532 -0.48372698 0.3405771 0.041079618
000140 68 f7 d1 3e ce 1d b9 3f 10 01 bd 3c 2b 6b ba 3f
       0.41009068 1.4462221 0.023071796 1.4563955
000150 d2 c3 90 3e ae a5 0b be 56 3d 2d 3f 86 4e a8 3f
       0.282744 -0.1363742 0.67671716 1.3148963
000160 6c 4d 36 3f 4e 73 58 3f a8 83 be 3d 96 1e c4 3f
       0.71211886 0.8455094 0.09302455 1.5321834
000170 14 57 42 bf 24 51 26 3f 08 08 3b bf 07 fc b9 be
       -0.7591412 0.6496756 -0.7305913 -0.36325094
000180 02 d4 63 3f 7f da d8 be 9a f4 b5 3f 4c 13 51 3f
       0.88995373 -0.423542 1.4215271 0.8167007
000190 3a 22 22 bf 8a 69 b1 3e 4b cf b7 be 71 1a 2d bb
       -0.63333476 0.34650832 -0.3590034 -0.0026413465
0001a0 d8 56 f9 be f9 d8 d6 bf bf 95 08 bf 85 6e 9b 3f
       -0.4869907 -1.6784965 -0.53353494 1.2143103
0001b0 64 65 51 3f cf 3f 38 3e b1 71 d6 be c6 e5 b5 3e
       0.81795335 0.17993091 -0.41883615 0.35526866
0001c0 67 7d c3 3f 01 ce 3b be 2b 23 1a 3f 53 75 65 3e
       1.5272645 -0.18340303 0.6020991 0.22408037
0001d0 c7 b2 b4 be ed 30 bc 3e 38 93 88 be 0d a8 94 3d
       -0.35292646 0.36756077 -0.2667482 0.07258616
0001e0 d9 c5 01 be d1 a7 65 3f f5 4f 05 c0 98 d4 b7 3f
       -0.12673129 0.8970919 -2.0830052 1.4361753
0001f0 a0 11 59 be 80 05 84 bf da d7 46 be e5 37 2f bf
       -0.2119813 -1.0314178 -0.19418278 -0.68444663
000200 df ae 63 3e b5 77 5f bf 00 76 dc be 0a ea a9 3f
       0.22234677 -0.87292033 -0.43058777 1.3274548
000210 d8 01 85 be 09 c8 01 3f e5 8c b0 be 3e d1 00 be
       -0.2597797 0.50695854 -0.34482494 -0.1257982
000220 d3 a2 32 3f b7 86 92 3f 6f 10 fa 3e 56 6e 23 3d
       0.697797 1.1447362 0.48840663 0.039900146
000230 8d 8e 3b 3d 80 38 8c bf 00 08 ef be db 96 ec be
       0.045790244 -1.0954742 -0.4668579 -0.46208844
000240 6b 4d ea be 72 2f d4 3e 1e a1 03 3f 54 92 09 3e
       -0.4576219 0.41442448 0.5141772 0.13434726
000250 a8 84 0a bf 24 06 3c be 22 3b 24 3f 17 9e 1e 3f
       -0.5410867 -0.18361717 0.6415273 0.61959976
000260 24 c4 b0 bc 9c 1f 2e 3f 76 3b 53 be 75 32 d9 be
       -0.021577902 0.6801698 -0.20628151 -0.42421308
000270 3e 48 1e 3e a0 36 34 bd c8 25 15 bf 0a 1e 0d 3f
       0.15457246 -0.043997407 -0.58260775 0.5512396
000280 16 78 95 be 6e 50 1a 3e 40 fd cf be bf 44 a1 3e
       -0.2919318 0.15069744 -0.40622902 0.31497762
000290 dd 99 07 3f 0c 6c 6c bf 6f da 04 bf 66 cf 79 bf
       0.5296915 -0.92352366 -0.51895803 -0.9758209
0002a0 3f c6 09 3e 8c 24 37 3f 6a 5c 14 be 26 94 20 bf
       0.13454531 0.7154014 -0.14488378 -0.62726057
0002b0 bb c3 84 3e 42 b9 05 3f b6 b3 2f 3d 54 e8 64 be
       0.2593058 0.52235806 0.042895995 -0.22354251
0002c0 94 71 86 3e 4e 4c 93 3e 88 c2 c6 3e 2d f5 31 be
       0.26258528 0.28769153 0.3882029 -0.17378683
0002d0 86 7b 37 be bd 0d 4e 3e 47 e4 f8 be a0 50 f1 bd
       -0.17918214 0.20122428 -0.48611662 -0.11782956
0002e0 84 ba 29 be 46 d8 28 be d9 21 51 3e 9b dc 25 bf
       -0.16575056 -0.16488752 0.20423068 -0.6478974
0002f0 f0 7a c4 bd 12 c1 0c 3e 21 58 30 bf 6a eb 97 3e
       -0.09593761 0.13745525 -0.68884474 0.29671794
000300 26 87 43 bf 44 7c 86 bf 32 da 08 bf ec fa 7c 3f
       -0.76378095 -1.0506673 -0.5345794 0.98820376
000310 0f e5 5f bf ed 1e 45 bf 58 21 87 bd 87 df 83 be
       -0.8745889 -0.77000314 -0.06598157 -0.25756475
000320 40 52 94 be 95 5e a4 be f7 5b 4b bf 89 59 75 bf
       -0.28969002 -0.3210341 -0.794372 -0.95839745
000330 15 a4 7a bf fa 61 73 be 2a 2a 0a bf ba 27 35 be
       -0.9790662 -0.23767844 -0.5397059 -0.17690936
000340 b3 cd a0 be 4a 6e 8f bf 94 d3 62 bf 06 5b 86 bf
       -0.31406936 -1.1205533 -0.8860409 -1.0496528
000350 85 17 5e bf 80 e5 c4 bc f1 eb 6e bf ab d2 14 bf
       -0.8675464 -0.024035215 -0.9332877 -0.58133954
000360 03 a4 0a bf eb 5d c7 bf a0 4a 40 bf 09 c1 74 bf
       -0.5415651 -1.5575536 -0.7511387 -0.9560705
000370 d3 d3 72 bf 54 8c 82 bf de c3 0e bf 67 82 00 bf
       -0.9485447 -1.0199075 -0.5576762 -0.5019898
000380 b9 53 36 bf 34 e0 50 bf ed 78 62 be 7a 9c 8a bf
       -0.712215 -0.81592107 -0.22116442 -1.0829003
000390 12 28 86 bf e0 48 cc 3d 73 72 aa bd d8 76 c1 be
       -1.0480978 0.09974837 -0.08322611 -0.37785983
0003a0 46 9a a0 bf f3 11 07 3f 26 7a f1 be 6d db 06 be
       -1.254708 0.52761763 -0.47163504 -0.13169642
0003b0 6c 67 66 bf c5 c9 c8 be ff ce 3a be 97 13 cc be
       -0.9000156 -0.39216438 -0.18243025 -0.39858696
0003c0 98 fb 91 bf 04 47 e3 be 2b 63 5a bf 12 96 24 bf
       -1.1404905 -0.44390118 -0.8530757 -0.6429149
0003d0 c7 4c a9 bf 8a f3 e0 be 1a 08 88 bf 47 61 ef be
       -1.3226556 -0.43935806 -1.0627472 -0.46753904
0003e0 01 9d 1b bf 8f 7d 36 bf 35 55 23 3f 1d 30 76 bf
       -0.60786444 -0.7128534 0.6380189 -0.96167165
0003f0 f8 71 61 be f4 2c 70 be 8d b0 3f bf 4f dd a9 3e
       -0.22016132 -0.23454648 -0.7487877 0.33176658

lstm.bias_hh_l0 f4 [256]
000000 da e6 82 bf 92 eb 65 bf c7 b0 90 bf 0c 72 54 3d
       -1.02267 -0.89812577 -1.1303948 0.051866576
000010 82 95 d2 be c4 29 ac bf 21 c3 8b bf 9c a0 a7 bf
       -0.4112969 -1.3450246 -1.0918924 -1.3095889
000020 f0 6d 7e bf 1c ee dd bf c6 20 d0 bf 79 73 73 bf
       -0.993865 -1.733829 -1.6260002 -0.9509807
000030 fd 7d a8 bf 84 c4 9f bf 40 84 3c bf 52 34 28 bf
       -1.3163449 -1.2481847 -0.736393 -0.65704834
000040 72 8e bd 3e eb 4f 94 be 61 a3 70 bf bb d9 49 bf
       0.3702274 -0.28967223 -0.93999296 -0.78847855
000050 39 fd 94 bf 77 32 04 bf cd 24 83 bf 19 6b 85 bf
       -1.1639777 -0.51639503 -1.0245606 -1.0423309
000060 83 79 20 bf b4 b4 4e bf 88 d6 0c bf 46 6d b3 bf
       -0.6268541 -0.8074448 -0.5501485 -1.4017723
000070 f3 58 1c bf 06 46 9e be a6 2e 89 bf 97 f3 8f 3d
       -0.61073226 -0.309128 -1.0717361 0.07028883
000080 c1 e0 4e bf 8c 32 61 bf 6f 44 a5 bf be 81 2e bf
       -0.808117 -0.87967753 -1.2911509 -0.6816672
000090 82 bf 9c bf c6 c0 00 bf 7e 21 83 be 92 e4 8b be
       -1.2245944 -0.5029415 -0.2561149 -0.27322823
0000a0 fb 94 97 bf 29 e7 e2 3e 20 a3 00 bf 4e f0 0a c0
       -1.184234 0.44316986 -0.5024891 -2.170917
0000b0 83 4f 0b 3e f5 8d 8b be 70 a2 47 bf 56 dc a6 bf
       0.1360455 -0.27256742 -0.77982235 -1.3035991
0000c0 a8 cc 82 bf 05 7c 22 bf b6 ad 6a bf a1 0b af bf
       -1.0218706 -0.6347049 -0.9167131 -1.3675424
0000d0 14 11 63 bd 39 8c 99 bf 41 0c ab bf 2c 11 27 bf
       -0.05543621 -1.1995918 -1.3363115 -0.6526058
0000e0 42 5c 87 bf 0a 8a 81 bd 01 4e ab 3d b2 b1 22 bf
       -1.057503 -0.06325157 0.083644874 -0.6355239
0000f0 1a 1f 9b bf 00 a7 4a bf 84 af 24 bf 8b 87 4a bf
       -1.2118866 -0.7916107 -0.64330316 -0.7911307
000100 f4 a3 14 bf 03 6a 82 3f 51 9a 31 3f e2 c8 ef be
       -0.5806267 1.0188602 0.69376093 -0.4683295
000110 85 8d d0 3f 5b 53 e8 3d 71 61 24 3f bf 6a 88 bf
       1.6293188 0.11344024 0.64211184 -1.0657576
000120 55 31 b6 3e 1d ed 48 3f f9 fd fd 3e ab 9a 89 be
       0.35584512 0.78486806 0.49607828 -0.26875815
000130 4b 1c 98 be d6 cf a6 be c8 32 9c 3e e7 e7 0b bc
       -0.29709086 -0.3258044 0.30507493 -0.008539177
000140 17 33 04 3f 9b c9 c1 3f 70 65 6e 3d 4d d8 9e 3f
       0.51640457 1.513965 0.058202207 1.240976
000150 95 af 82 3e ec d7 f5 bd b8 d7 02 3f f2 0c ae 3f
       0.25524583 -0.120040745 0.5111041 1.35977
000160 e9 cc 2a 3f ec a0 8a 3f 62 47 21 3e f8 95 be 3f
       0.6671892 1.083036 0.15749887 1.4889517
000170 50 bf 2a bf a8 4d 3c 3f f8 34 3f bf 9d c1 f3 be
       -0.6669817 0.73555994 -0.746902 -0.47608653
000180 0a 50 3a 3f cb da da be db 24 c1 3f 1a 0f 1c 3f
       0.7277838 -0.4274505 1.5089372 0.60960543
000190 ce a8 e4 be f0 23 c6 3e a5 ee b1 be af bd 2a bc
       -0.44660038 0.38699293 -0.34752384 -0.010421201
0001a0 d5 49 9a be 84 3e d0 bf 81 d1 9d be 6c ee a2 3f
       -0.30134454 -1.6269078 -0.308239 1.272901
0001b0 d3 9f 4a 3f 34 eb 08 3e 2a 62 dd be f6 b5 06 3e
       0.7915012 0.13370973 -0.43238956 0.1315535
0001c0 bc 42 db 3f 1c 9d 96 be db 49 01 3f 69 73 10 3e
       1.7129741 -0.2941674 0.5050332 0.14106525
0001d0 e8 91 50 be 9e 44 16 3f 68 86 21 be f1 7c 87 3e
       -0.20368159 0.5869845 -0.15773928 0.2646251
0001e0 1d 74 89 bd 50 79 4e 3f b7 4c f6 bf 33 3d bd 3f
       -0.067116 0.8065386 -1.9242162 1.4784302
0001f0 2a d4 0a 3a 3a 86 a0 bf db 60 2f be b4 04 51 bf
       0.0005295897 -1.2540963 -0.17126791 -0.816478
000200 bf 5a 93 3e 4c 4d 4b bf 80 33 d0 be f5 4d 99 3f
       0.2878017 -0.7941482 -0.4066429 1.1976916
000210 76 1c 86 be 5b d1 b2 3e 57 d3 de be 49 9f d5 bc
       -0.2619359 0.3492535 -0.43520615 -0.02607693
000220 7e cf 26 3f fe 79 7c 3f fe c4 f3 3e bc 15 75 bd
       0.6516036 0.98623645 0.4761123 -0.05983518
000230 48 7e 78 bc fb 33 88 bf 80 8a c8 be 1b b9 ef be
       -0.015166827 -1.0640863 -0.39168167 -0.46820912
000240 a8 b2 85 be b1 f2 1d 3f 09 54 d0 3e 2b 21 79 3d
       -0.26112866 0.6169844 0.40689114 0.060822647
000250 61 42 e7 be 0c a6 59 bd ca e7 20 3f 2d c5 47 3f
       -0.4516783 -0.05313687 0.6285368 0.7803524
000260 ba aa 0f 3d d0 16 1b 3f 71 f1 36 be 06 73 02 bf
       0.035074927 0.60581684 -0.1786554 -0.5095676
000270 02 5d 59 3d 26 05 b8 bd 71 63 49 bf 85 e8 0c 3f
       0.053067215 -0.08985357 -0.7866736 0.55042297
000280 1b f2 f5 bd b4 f7 92 3e 85 23 d1 be e7 2c c3 3e
       -0.120090686 0.28704607 -0.40847412 0.38120195
000290 ab 2d 06 3f ad b2 70 bf 22 c6 19 bf a9 68 8c bf
       0.52413434 -0.9402264 -0.6006795 -1.096944
0002a0 d0 2a 52 3e 25 60 1b 3f 7a a8 fa bd 62 9d 22 bf
       0.20524144 0.6069358 -0.122391656 -0.635214
0002b0 26 14 59 3d d5 a3 00 3f c3 48 b7 bc 81 cb 38 be
       0.05299773 0.5024999 -0.022373563 -0.1804638
0002c0 2d e6 89 3e 38 a6 43 3e 9d 9c 01 3f 7a 49 19 be
       0.26933423 0.19106376 0.506296 -0.14969435
0002d0 a5 53 10 be 62 c2 50 3e 26 a9 fc be 81 8f e0 bc
       -0.14094408 0.20386651 -0.493478 -0.027412178
0002e0 5b e4 c8 be f0 ab 74 be 64 b5 df 3d 49 d4 45 bf
       -0.3923672 -0.23893714 0.109232694 -0.77277046
0002f0 61 18 00 be 13 2c 0a 3e 3a 81 43 bf a8 fe bd 3d
       -0.125093 0.13493375 -0.7636906 0.092770875
000300 8e 5e 2d bf 4a b5 6b bf bd cd f7 be 73 af 7d 3f
       -0.67722404 -0.920735 -0.48399153 0.9909584
000310 8c fa 7c bf 2d 95 17 bf 43 cf 03 be 6a 8f 27 be
       -0.98819804 -0.59212 -0.12872033 -0.16363302
000320 30 26 8a be 2e 2a a5 be 96 54 59 bf b4 41 8b bf
       -0.2698226 -0.32258743 -0.8489469 -1.0879426
000330 66 78 6f bf 8d 2d 3e be 8b 98 ea be 33 2b c3 bd
       -0.9354309 -0.18572064 -0.45819506 -0.09529724
000340 c4 af ce be 51 df 6d bf 3d db 64 bf 05 50 85 bf
       -0.40368474 -0.9291888 -0.8939703 -1.0415045
000350 df b7 53 bf 5e e4 72 3a 23 93 72 bf 63 05 38 bf
       -0.8270244 0.0009265597 -0.9475576 -0.7188322
000360 e5 3a 1e bf 07 78 c1 bf 0b 80 38 bf d8 07 50 bf
       -0.61808616 -1.5114754 -0.7207038 -0.8126197
000370 c9 4e 8a bf bd 1e 6e bf 5d ed 18 bf 57 93 10 bf
       -1.0805293 -0.9301565 -0.5973719 -0.5647482
000380 70 c6 33 bf 69 17 5d bf 1c 01 66 be 45 52 a6 bf
       -0.70224667 -0.86363846 -0.2246136 -1.2993857
000390 fb 2c 75 bf 90 d7 45 3d 1e 8f 4b be a0 41 16 bf
       -0.9577176 0.04830128 -0.19878814 -0.58693886
0003a0 f0 5b a4 bf 60 cd 14 3f 09 27 0f bf d8 75 8e bd
       -1.2840557 0.5812588 -0.5591894 -0.06956071
0003b0 a3 93 76 bf be 9c b1 be 65 06 46 be 69 4c b1 be
       -0.96319026 -0.34689897 -0.19338377 -0.3462861
0003c0 f8 87 99 bf 48 74 1f bf 41 da 21 bf 74 07 05 bf
       -1.1994619 -0.62286806 -0.63223654 -0.519645
0003d0 51 52 ac bf c9 12 f7 be 81 d5 99 bf d9 e1 f2 be
       -1.3462621 -0.4825652 -1.2018281 -0.47437933
0003e0 c3 c0 44 bf 24 15 38 bf 03 f8 3d 3f 28 62 4c bf
       -0.7685663 -0.7190726 0.7420656 -0.79837275
0003f0 ef 42 02 be fb 7f 1f be 52 ac 3f bf a5 c2 08 3e
       -0.12720846 -0.15576164 -0.74872315 0.13355501

lstm.weight_ih_l1 f4 [256, 64]
000000 cd 77 a8 3d e9 8d 6d bf 1d 55 a5 bf 37 a7 14 3f
       0.08225975 -0.9279466 -1.29166 0.5806765
000010 6c 67 68 bf 10 ad f1 3f 29 05 02 bf 85 b7 0d 3f
       -0.9078281 1.888094 -0.50789124 0.55358154
000020 99 e2 fc bd 1f e0 03 3f 07 f7 5e 3f 5b e9 69 3f
       -0.123479076 0.51513857 0.87095684 0.913717
000030 2d ad 3e 3e bc 59 a3 be e4 31 a8 3e 9c 97 10 bf
       0.18620749 -0.319044 0.32850564 -0.5648134
000040 49 ff c8 3e 6d 14 22 bf 32 4e 43 bf 46 5a 57 3d
       0.39257267 -0.6331242 -0.7629119 0.052576326
000050 90 f8 e0 be af 95 07 3d 5e e9 d8 3e 24 61 fb 3e
       -0.43939638 0.033101734 0.42365545 0.4909755
000060 3e 15 73 3f 00 3b 10 be 36 a8 e6 be 26 70 6c be
       0.9495429 -0.14085007 -0.4505021 -0.23089656
000070 b9 7f 94 bf a9 94 c4 3e 04 3f 19 bf a1 b0 64 be
       -1.1601478 0.3839467 -0.5986178 -0.22333004
000080 7e 41 34 bf 33 7e b4 3e 16 69 54 bf ca a7 8c 3d
       -0.70412433 0.35252532 -0.8297285 0.06867941
000090 a6 ff 6e bf 45 d8 f2 3e 2d 86 c3 be da 09 bc 3d
       -0.9335884 0.47430626 -0.38188305 0.091815665
0000a0 42 f2 dc 3f dd 56 43 3f 64 48 dd 3e ec 1a af 3f
       1.7261431 0.7630442 0.43219292 1.3680091
0000b0 b3 18 24 bd cf 0d 8e bf df d2 f7 3e 5b a0 f0 3e
       -0.040062618 -1.1097964 0.4840307 0.46997342
0000c0 73 07 18 be a5 a2 fb 3c 78 80 be 3f 6e 9e 02 bf
       -0.14846592 0.030717203 1.4882956 -0.51022995
0000d0 3e d0 e8 be 84 12 55 bf d3 00 5f bf 36 13 19 c0
       -0.45471376 -0.8323138 -0.8711063 -2.3917975
0000e0 36 d1 8d 3e ae dc 66 be 08 79 2d bd 61 14 ab be
       0.27698678 -0.2254512 -0.042351753 -0.33413985
0000f0 7d e5 25 3f e0 73 15 be 70 fa 22 3e 9e 5b 29 3f
       0.64803296 -0.14594984 0.15915847 0.6615542
000100 61 b3 ff bd fd 62 64 bf ee 4e 97 bf 55 43 84 bd
       -0.12485386 -0.89213544 -1.1820962 -0.06458155
000110 ee be 36 bf 20 24 51 3d 98 ea f1 3d 6e d7 29 3e
       -0.71385086 0.051059842 0.11812323 0.16586086
000120 d1 98 fc be 0e 71 df bf e1 fc a1 bb 51 fc 06 c0
       -0.4933534 -1.7456377 -0.0049434756 -2.1091502
000130 5a 9f 96 3f c4 b7 e6 3e 3f 50 a0 be 4f 18 c5 3f
       1.176738 0.45062077 -0.31311223 1.5398043
000140 91 95 96 bd 05 24 ce bf 29 a9 54 3f 20 6c 0a 3f
       -0.07352746 -1.6104742 0.8307062 0.54071236
000150 3e 37 98 3e c6 9f 98 3e da 84 51 3f e6 16 b6 3f
       0.29729646 0.29809397 0.8184334 1.4225738
000160 0e 24 90 bf 4c 2b 12 3e 95 a5 c5 bf 10 3f 30 be
       -1.1261003 0.14274329 -1.5441157 -0.17211556
000170 e3 5c cf 3f b7 c1 38 3e 19 b3 99 3f 07 38 ed 3e
       1.6200222 0.18042646 1.2007781 0.46331808
000180 34 ee a2 bf 67 de 10 bf ef eb d6 bf b1 dd 9f 3e
       -1.2728944 -0.5658936 -1.6790751 0.31223825
000190 1c 70 38 3b 86 5a cd 3f 73 76 07 bf 7e e3 11 3f
       0.0028142994 1.604325 -0.52915114 0.5698775
0001a0 12 b2 cd 3f 2e da 33 be c8 88 ff bd 28 ab 06 c0
       1.6069968 -0.17563698 -0.12477261 -2.1041965
0001b0 76 2c 12 3d de 3b 16 3f 3a 54 95 be 5a 32 15 bf
       0.035686933 0.586851 -0.29165822 -0.58279955
0001c0 22 5a ba 3d 49 ee 34 3f 81 91 df bf 96 ca e2 be
       0.09099223 0.70676094 -1.7466279 -0.44295186
0001d0 db 85 61 be 47 a4 4d bf fd 3a d3 3e a9 fa 86 3f
       -0.22023718 -0.8032879 0.41255942 1.0545245
0001e0 c0 55 19 be 32 66 00 3f da 46 5d 3f 24 48 69 3f
       -0.14974117 0.5015594 0.86436236 0.911257
0001f0 2c a4 16 be e3 e2 96 be 9f 06 27 40 eb a5 db 3e
       -0.14711064 -0.29469976 2.6097791 0.42900023
000200 51 2a 30 3f 4c 88 ca bd 45 12 8b bf 5b c7 06 be
       0.6881457 -0.09889278 -1.086495 -0.13161986
000210 1d 54 11 3f 36 8f 38 3f 43 23 f6 bd 24 f5 1d 40
       0.5676897 0.7209352 -0.120184444 2.4680872
000220 c9 7a 22 bf e4 38 ba be a0 a3 49 bf ed 99 b3 3f
       -0.63468605 -0.3637153 -0.78765297 1.403135
000230 ce 5f 9f bf 78 30 c7 be 2b 12 e9 bd 83 9b 5c 3f
       -1.2451112 -0.38904166 -0.113804184 0.8617479
000240 1d 27 b0 be 9c e1 7d bf 17 24 8e be 57 e0 8e 3f
       -0.3440484 -0.9917238 -0.2776191 1.1162213
000250 7d ec 9f bf 02 06 b1 be 62 30 d2 3d 6b 7e db bf
       -1.2494045 -0.34574896 0.102631345 -1.7147955
000260 aa 0e d9 3e 66 d7 6a 3d 02 f9 6b 3f a7 33 c5 3d
       0.42394 0.057334326 0.9217683 0.096289925
000270 bb 3b c2 bf f7 04 9d bf 81 6f 85 3f 06 54 60 bf
       -1.5174478 -1.226714 1.0424653 -0.8762821
000280 5e 78 30 3d 89 c2 59 bf 07 5d f4 3e ea 1a 20 3e
       0.04308354 -0.8506246 0.47727224 0.15635267
000290 f8 56 aa bf 85 ad 28 be f6 91 5a bf 0b 1b 15 3f
       -1.3307791 -0.16472442 -0.8537897 0.5824439
0002a0 4e 15 a7 3d 21 f7 f1 3e 2a 4f 1c bf f8 9b 2f 3f
       0.081583604 0.47258857 -0.61058295 0.68597364
0002b0 cf 61 27 3f 2e 9a bb 3f b4 e9 1f 3e 3a d6 da be
       0.6538362 1.4656427 0.15616494 -0.42741567
0002c0 06 bb 05 3f fe cf 23 bf ee 45 86 3f cd 2f 0b bf
       0.522385 -0.63989246 1.0490091 -0.54369813
0002d0 19 ec 74 3e 1e e3 53 be 8d df c5 bd 7f e4 e2 bf
       0.23918189 -0.20692107 -0.096617796 -1.7725981
0002e0 5f d1 40 bf 2b f0 62 bf 86 32 91 3e ab da 2b 3f
       -0.75319475 -0.8864772 0.2835886 0.67130536
0002f0 35 4f b9 3e a9 72 e5 be 40 34 a7 bf 67 f6 e4 3f
       0.36193243 -0.4481404 -1.306282 1.7887696
000300 15 87 ce 3f ba 33 da bc 10 72 53 3f ab a1 e9 be
       1.6134974 -0.026635993 0.8259592 -0.45631155
000310 cd 98 2d bf 34 55 7c 3e e7 dc 25 3f ff 1c ad 3e
       -0.6781128 0.24641877 0.64790195 0.33811185
000320 38 91 9a 3e bb 42 ad 3d b0 1c 5e bf 77 60 cb bd
       0.30188918 0.084599935 -0.86762524 -0.099305086
000330 ac cb 1e 3f c9 5f a6 3f 9a 9a 8c be 39 dc 62 3e
       0.6202953 1.2997981 -0.27461702 0.22154321
000340 9b c5 7a 3e b8 42 3f bf 4b 3f c6 3f a5 d5 51 3f
       0.24489443 -0.7471118 1.5488065 0.8196662
000350 28 47 20 3f 4b 8f 00 3e ad a5 84 3f fc 88 84 bb
       0.62608576 0.12554662 1.036306 -0.00404465
000360 f3 f3 e3 3e 02 f7 67 3c 0a 6c 8c be 42 56 f8 3f
       0.44522056 0.014158012 -0.27426177 1.9401324
000370 3c 18 a5 3f b0 2d 34 3f 8a 7c 95 be 38 a2 69 bf
       1.2898021 0.70382214 -0.29196578 -0.9126315
000380 ad 7b ed 3e 06 f6 a7 bf 15 19 15 3e d2 dc fe bf
       0.4638342 -1.3121955 0.1456035 -1.9911139
000390 a8 83 7b 3c 9c 10 b1 3c aa 35 4e bf 35 ba 6f 3f
       0.0153512135 0.021614365 -0.80550635 0.93643504
0003a0 9f 20 ec be 5f 45 37 3f 7c ac 37 3f 6e 08 98 be
       -0.46118638 0.71590227 0.71747565 -0.2969393
0003b0 6b bb 7d 3c b3 1d 34 bd e7 38 9e be b7 6b 3a 3c
       0.015486578 -0.043973636 -0.30902788 0.01137822
0003c0 b3 d2 9b 3e b5 38 0e bf a1 81 bf bf e3 28 31 bf
       0.30434188 -0.5555528 -1.4961435 -0.69203013
0003d0 65 e3 53 3f cb 0e 1d bf 7a 8c b8 3e 7f 17 5b 3f
       0.8276885 -0.613507 0.36044675 0.8558273
0003e0 af 57 ee be 62 1a ad bf 56 90 0d bf f4 f8 21 bf
       -0.46551272 -1.3523676 -0.55298364 -0.632705
0003f0 27 59 69 3e d3 b0 8c bd 61 a6 e4 bf 88 31 11 bf
       0.22787915 -0.06869664 -1.7863275 -0.56716204

lstm.weight_hh_l1 f4 [256, 64]
000000 2f 1b 01 3f 57 96 a9 bf 5f 7a 6b be 29 34 d9 bf
       0.50432104 -1.3249005 -0.229959 -1.6969043
000010 46 70 67 3f 60 14 c9 bf 75 4e 16 c0 b4 88 5c 3f
       0.9040569 -1.5709343 -2.3485386 0.8614609
000020 42 e8 b3 3e fc 57 42 3e 9b dd a1 3e 85 ee 92 bf
       0.35138136 0.18978876 0.31614384 -1.147904
000030 ac 10 82 bc 26 9f ad bf a3 bd 30 3e 8b 72 5f be
       -0.01587709 -1.3564193 0.1725984 -0.21821038
000040 68 c0 8f bf 43 76 42 bf 30 3c a3 bf e7 c1 07 3e
       -1.1230593 -0.75961703 -1.2752743 0.13257562
000050 07 35 6d be d4 fb ba be b9 6a f6 3f 63 0b 35 3f
       -0.2316476 -0.36520255 1.9251319 0.707205
000060 7c 8d b4 bf 06 68 33 bf 87 40 c5 bf 78 dd 98 3d
       -1.4105678 -0.700806 -1.5410317 0.07464117
000070 1a 50 16 bc 4e db 23 be 0a 0b e1 be c5 be 2c bf
       -0.009174371 -0.16001627 -0.43953735 -0.6747859
000080 0c ca 97 3e 7b 0e d9 be 44 24 09 3f 97 33 5b 3e
       0.29646337 -0.4239386 0.5357096 0.21406399
000090 3c 63 65 3f f7 fa ca 3e dd 64 96 bf ac a9 31 bf
       0.89604545 0.39644596 -1.1749531 -0.69399524
0000a0 48 29 45 3f d0 6d 6b 3f 51 45 66 be 6c fb 21 bf
       0.77016115 0.91964436 -0.2248738 -0.63274264
0000b0 b1 fb 10 bf 23 84 c3 bf 87 d6 20 40 91 b1 14 3f
       -0.5663405 -1.52747 2.5130937 0.58083445
0000c0 43 65 1e be 5f 68 dc be d4 9f 55 be 92 a6 4a 3e
       -0.15468316 -0.4304838 -0.20861751 0.19790104
0000d0 c7 34 e6 3f 7b ef 65 3f 6d dd 79 3f c1 bb 02 bd
       1.7984856 0.89818543 0.97603494 -0.031917337
0000e0 3d 16 6f bf f1 0d 43 c0 8f 4c 0a be 04 f3 be bf
       -0.9339331 -3.047726 -0.13505767 -1.4917912
0000f0 62 3c 53 bf d0 98 a4 3f d0 18 bd 3f a6 7b a6 3f
       -0.8251401 1.2859135 1.4773197 1.3006485
000100 0c cf 47 bf 45 ec a2 be e5 5b 8d 3f ba 2a 94 3e
       -0.78050303 -0.31820884 1.1043669 0.28938848
000110 bd 3a 10 bf a0 13 21 3e 21 cf 9f 3e 77 77 6e bf
       -0.5633963 0.15730143 0.31212714 -0.9315104
000120 dc 2c 85 3d 9b 7e 6c 3d bb e8 dc 3f 30 38 d3 3d
       0.06502697 0.057737928 1.7258524 0.10313451
000130 a4 fb 4a 3d 64 6d 19 3f 92 da ee be 7b d8 3d bf
       0.04955639 0.5993254 -0.4665113 -0.7415845
000140 fa 6a 2b 40 d0 fd 97 bf 0f 22 9d 3f 28 30 9c be
       2.6784043 -1.1874332 1.2276019 -0.3050549
000150 f6 a2 5e bf 05 8b 01 3f b7 31 01 40 1c 26 be 3f
       -0.8696741 0.5060275 2.0186594 1.485538
000160 c1 0c 05 bf 21 e2 4b 3d b7 f1 9e bd 06 66 ec bd
       -0.51972586 0.0497762 -0.07760947 -0.11542897
000170 c7 63 29 be e8 9e e4 be d3 81 67 3f 40 f8 33 40
       -0.16541968 -0.44652486 0.9043247 2.812027
000180 9b 6c 95 3e 3b b5 27 3f d9 39 41 3f d0 f2 31 be
       0.29184422 0.6551091 0.75478894 -0.17377782
000190 20 61 94 bf f3 14 01 c0 37 e2 be be ed c9 08 3f
       -1.159214 -2.0169036 -0.37281963 0.53433114
0001a0 9b 96 0e bf 9c 08 cd 3f 33 be ce 3e 28 11 87 3e
       -0.55698556 1.6018252 0.40379485 0.26380277
0001b0 91 af eb 3e 9e c8 e1 bd 49 9b bb 3f 31 f0 f1 bd
       0.46032384 -0.11024593 1.4656764 -0.11813391
0001c0 85 4a 08 3d 90 76 9c bd 8c 6f 5b bf 04 94 92 bf
       0.033274192 -0.076398015 -0.8571708 -1.1451421
0001d0 3f 40 ef be 3b a6 90 bf 9b 8c 51 3f 82 00 74 be
       -0.46728703 -1.130073 0.8185517 -0.23828319
0001e0 d1 3f b5 3e 5e e8 64 be f4 36 82 3f 80 3a 3b 3f
       0.3540025 -0.22354266 1.017302 0.7313614
0001f0 03 9c 5f bf e0 17 d9 be d8 c8 dc 3f 27 a3 16 bf
       -0.8734743 -0.42401028 1.7248793 -0.588427
000200 f5 10 74 3e 60 96 bd 3d ef e2 51 3f 8b 07 d1 3e
       0.23834594 0.092571974 0.819869 0.40826067
000210 d2 1c 77 3d dd 12 e4 3e f3 1b 78 bf 05 74 86 bf
       0.06033022 0.44545642 -0.9691765 -1.0504156
000220 d6 68 e4 bf 10 0a b5 be 95 3b 49 bf fe ed 1e 3f
       -1.7844493 -0.3535924 -0.7860654 0.620819
000230 0c c8 ae bc 14 e1 f5 3d ef 55 d8 bf e0 6f 71 3d
       -0.021335624 0.12005821 -1.6901225 0.058944583
000240 69 77 89 3f 57 e6 0a 3f a8 2d c7 bf 42 0e 49 3f
       1.0739566 0.5425772 -1.5560808 0.7853738
000250 0b 1c 67 3c 5c d9 23 bf 2b 33 f5 3e 52 6a 4b bf
       0.014105807 -0.6400354 0.478906 -0.79459107
000260 3b 9f 49 3f 65 fa d6 be 4e 45 d3 be 01 f1 bf 3f
       0.7875859 -0.4198791 -0.41263813 1.4995424
000270 b3 dd 81 3e eb d7 a9 3e 84 4e 94 3e 27 7c cd 3e
       0.25364456 0.33172545 0.28966153 0.40133783
000280 a5 16 86 3f 4c 5c 17 bf 91 57 82 bf ff a9 a2 bf
       1.047566 -0.5912521 -1.0182973 -1.2708129
000290 69 3c 3c 3f 69 b5 77 bc 3d f2 4d be 14 b8 78 bf
       0.7352968 -0.015118935 -0.20111938 -0.9715588
0002a0 d1 1d f5 bf 4b ac 58 3e 89 93 28 bf 06 f6 23 be
       -1.9149724 0.21159475 -0.6585012 -0.16011819
0002b0 1a 27 b4 bc fb 30 2a 3e 0e ab 83 3f f0 1b 82 3f
       -0.021991301 0.16620247 1.0286577 1.0164776
0002c0 2c 5c 22 bf b0 c2 81 3f b5 b9 9c bf 6e 1a 88 3e
       -0.63421893 1.0137539 -1.2244173 0.26582664
0002d0 bc 6c e5 bf 74 85 96 3e f5 19 75 bf 68 b0 bf be
       -1.7923808 0.29398692 -0.9574273 -0.37439275
0002e0 0e 3f 3f be a0 47 dd be fa 47 20 3e b8 01 cf 3d
       -0.18676397 -0.43218708 0.15652457 0.1010775
0002f0 ca f5 3a bf 79 9b 6f bf cf 2f 9e be a8 d2 6b bf
       -0.73031294 -0.9359661 -0.3089585 -0.9211831
000300 08 33 cc 3f e2 f8 bb 3c 8e d4 89 3f 0f f2 75 3f
       1.5953074 0.022945825 1.0767992 0.9607248
000310 3e 80 20 3f a0 3d 98 bd ea f7 bd 3e 3d a2 1d 3e
       0.6269568 -0.07433629 0.37103206 0.1539392
000320 d0 d1 20 40 04 21 07 3c 02 b4 5b 3e 14 0d f6 bf
       2.512806 0.008247618 0.21455386 -1.9222741
000330 ad af c2 3f d3 6d 6b be a4 65 a5 be 85 76 c0 3f
       1.5209862 -0.22991113 -0.32304108 1.5036169
000340 48 39 30 3e a6 15 af be e0 91 ac 3f 08 7e bd 3f
       0.17209351 -0.34196204 1.3482018 1.4804087
000350 72 2f 3b 40 21 78 1e bf 6c 2a b2 3f f3 a5 9a 3f
       2.9247708 -0.6190205 1.3919196 1.2081894
000360 cd 4f dd 3b 2d da 1d 3f 42 b4 2f 3f 9c 1a dc be
       0.0067538978 0.61661035 0.68634427 -0.4298905
000370 05 21 21 3f 61 14 96 3f 9f fa 81 be cb 87 18 bf
       0.6294101 1.1724969 -0.2538652 -0.59582204
000380 28 83 3f 3d 7b 28 43 3f 7c d7 65 3e 34 4f bb bf
       0.04675594 0.76233643 0.22445482 -1.4633546
000390 11 4d ff 3e c6 b1 8e 3f c1 e3 e2 3e 38 4e 33 bf
       0.49863485 1.1148002 0.44314387 -0.7004123
0003a0 d7 e6 c2 3e e3 ce 58 3e f3 21 e4 bd b4 d2 1d 3e
       0.38066742 0.21172671 -0.11139288 0.15412408
0003b0 62 b1 ae be 84 57 a8 3e c1 9b 8d 3d 7c 68 a3 bf
       -0.34119707 0.3287927 0.06914473 -1.2766261
0003c0 fa 0c ef 3c 4a 70 d8 3e 33 72 0b 3f 15 92 34 bf
       0.029180992 0.4227317 0.5447113 -0.70535403
0003d0 d8 52 bd bf 44 0f ee 3e 1d 64 77 3f 0c 32 c2 3f
       -1.4790907 0.46496022 0.96637136 1.5171523
0003e0 a3 16 b2 be ba 37 bc 3e 31 cf 6c 3f f3 53 4d 3f
       -0.34782895 0.36761266 0.9250365 0.8020622
0003f0 da 61 f9 bd 6b d6 83 3e 61 ed a5 be bd 9a 33 3e
       -0.12176867 0.25749525 -0.32407668 0.17539497

lstm.bias_ih_l1 f4 [256]
000000 f2 61 fb be 29 28 20 bf 6f 88 5f 3d 5c 4a b8 3d
       -0.49098164 -0.6256128 0.054573473 0.08998558
000010 ef 35 bd bf fb eb 42 3f 90 7a 92 be c5 cd 35 bf
       -1.4782084 0.7614133 -0.28609133 -0.71017104
000020 8c 68 ca bf a7 d8 fc be 3b aa 8d be cc 1d 89 3e
       -1.5813155 -0.49384043 -0.27668938 0.26780546
000030 e2 4b af be c6 9f c5 bd ed 89 58 be ec bc ec 3e
       -0.34237581 -0.09649615 -0.21146365 0.46237886
000040 a9 59 c4 bf 9c 1b b5 bf fb 03 75 bf ed 59 b2 bf
       -1.5339862 -1.4149051 -0.957092 -1.3933693
000050 99 f8 17 bc 30 9f 93 be b9 d9 c4 be 0c 14 83 be
       -0.009275579 -0.28832388 -0.3844736 -0.25601232
000060 6a 3a c8 bf b1 7a 1a bf 76 4d 19 bf a2 45 48 bf
       -1.5642827 -0.6034346 -0.5988382 -0.7823125
000070 a1 da 6f bf 05 f1 3c be 94 41 cd bf c5 f7 35 bf
       -0.93692976 -0.18451317 -1.6035638 -0.7108119
000080 b0 d8 07 3f 85 3d 5c bf 66 b7 4b bf e0 b9 77 be
       0.53065014 -0.8603137 -0.7957672 -0.24192
000090 e4 f4 51 3e 01 4b bb bf 35 a2 7e be da bd 9f bf
       0.20503575 -1.4632264 -0.24866565 -1.2479813
0000a0 67 bb e0 bf 22 e1 a3 3e 50 d5 93 be f3 eb 5f bf
       -1.7557191 0.320077 -0.28873682 -0.87469405
0000b0 d6 77 9b bf 43 29 02 bf b9 32 42 bf 0f f5 31 bf
       -1.2145946 -0.5084421 -0.75858647 -0.69514555
0000c0 2a 8d b5 be 2f 80 8b bf 3d a2 2b bf 6e f9 80 bf
       -0.35459262 -1.0898494 -0.6704443 -1.007612
0000d0 b3 36 90 bf ff c3 95 3f 90 27 81 be 74 fc 61 bf
       -1.1266693 1.1700438 -0.25225496 -0.8827584
0000e0 d1 eb a5 3e 75 f8 43 bf 42 d9 6d bd bd fa 4f bf
       0.32406476 -0.7655099 -0.05806852 -0.8124197
0000f0 5e 63 ae be 45 46 21 bf 9e 19 31 bf ca 7b b6 bf
       -0.34060186 -0.6299785 -0.69179714 -1.4256527
000100 f3 8a 1f 3f 0e ff 76 3f 6b b9 0c 3f 56 24 21 3f
       0.62321395 0.9648293 0.54970425 0.6294607
000110 b5 b5 b1 3f 09 36 91 3e 7b 85 28 be b6 d8 dd 3e
       1.3883578 0.28361538 -0.16457169 0.433294
000120 01 a6 3b 3f 9b b9 40 3f ad c0 10 be 26 86 a5 bd
       0.73300177 0.7528321 -0.14136 -0.080822274
000130 ef fb 00 3f 3f e8 01 3d 9d f3 c1 3e 6a 34 90 3f
       0.5038442 0.031715628 0.37881175 1.1265996
000140 d9 e6 6c 3f 7d 0f 35 3f c9 05 55 3f d9 31 b0 3f
       0.92539746 0.7072676 0.8321195 1.3765212
000150 94 ef c8 3d c9 ce 2a 3f 05 86 3a 3f 4c 4b d3 3d
       0.09811321 0.6672178 0.7286075 0.10317096
000160 f9 b9 68 3f a1 95 c4 3e 90 4d 84 be 3a b3 4b 3f
       0.9090877 0.38395408 -0.25840425 0.79570353
000170 9d 8f 0e 3f 7a 5b 96 3f 38 13 8e 3f 8b 19 0a 3f
       0.55687886 1.1746666 1.1099615 0.53945225
000180 03 db 42 3f 39 56 57 3f 1e 1b 16 3f 95 51 34 3f
       0.76115435 0.8411594 0.5863513 0.70436984
000190 e0 ce 3f 3f c2 cd 41 3f f7 60 fe 3d 9e 82 87 3f
       0.7492504 0.75704587 0.12420838 1.0586736
0001a0 cf 8d 81 3f 1c cc 1e 3f 03 ba 4a 3f 72 dc 5f 3f
       1.0121402 0.62030196 0.7919008 0.8744575
0001b0 ee 20 43 3e 17 06 b6 3e 84 71 81 3f 69 d8 ff 3d
       0.1905553 0.3555152 1.0112767 0.12492449
0001c0 db 36 ad 3e a1 d5 33 be 9d ad 1c be 52 40 8b 3f
       0.33830914 -0.17561962 -0.15300603 1.0879004
0001d0 eb f6 09 3f 84 f5 80 3f 95 8a 9f 3f af f9 48 3f
       0.5389239 1.0074925 1.2464167 0.78505987
0001e0 a2 53 bb 3f 9f 6b d4 3d 9e 77 1b 3f e3 cc 07 3e
       1.4634898 0.103720896 0.60729396 0.13261752
0001f0 b7 4c 41 3e 5a a5 b0 3e e3 94 58 3f 28 d0 82 3f
       0.1887692 0.34501153 0.84602183 1.0219774
000200 10 2d 57 3e 56 3e 27 bc c9 92 8d 3e b3 f4 74 3f
       0.21013284 -0.010207733 0.2765105 0.9568588
000210 b7 44 24 bf e4 70 ae bf e0 b9 8e 3e e0 64 b6 3e
       -0.6416735 -1.3628201 0.27876186 0.35623837
000220 7c 5d 2b 3e b2 f1 1a 3d 26 c8 22 3e 50 9c 67 bf
       0.1673488 0.037828155 0.15896663 -0.9047289
000230 b3 f2 e8 be 6d da 8f bf d4 f5 cb 3c 79 b7 06 c0
       -0.45497665 -1.1238533 0.024897493 -2.1049483
000240 a3 ed 61 3e 33 41 f8 3d 05 e4 92 3c 21 01 68 be
       0.22063307 0.12121811 0.017930994 -0.2265668
000250 57 bc 2a 3f 41 83 7f bf 43 b9 94 be 03 38 a6 3e
       0.66693634 -0.9980965 -0.29047593 0.3246461
000260 1e 9a 9c be 77 28 63 3e 1b 5b 8a be 0f 2b 02 3e
       -0.30586332 0.22183405 -0.27022633 0.12711738
000270 cd c7 78 be 3a e7 5c bd fa 6a 41 3e f2 b8 5d bd
       -0.24294968 -0.053931452 0.18888465 -0.054131456
000280 de 96 e1 3e 14 d3 ed 3d a9 7f 02 3f 46 60 96 be
       0.44060415 0.116125256 0.50976044 -0.29370326
000290 83 1e 49 be 95 9b fa 3d 8a 99 96 be 6f 16 0b bf
       -0.19640546 0.12236706 -0.29414016 -0.54331106
0002a0 9b 4f e8 3d 38 87 3f be 57 9d 82 be 2d c0 21 3f
       0.113433085 -0.18703926 -0.25510666 0.6318386
0002b0 df 21 2c bd 79 3c e8 3e 1f 3b 56 3e 4a 7b b9 3e
       -0.04202449 0.45358637 0.2092099 0.36226875
0002c0 35 2a ed 3d ac 75 fe be b1 39 a6 3e 22 0d a0 3b
       0.11580316 -0.49699152 0.3246589 0.004884378
0002d0 0e 19 64 3d 5c 10 8f bf 2f d8 17 bd e2 c9 d8 be
       0.055687957 -1.1176867 -0.037071403 -0.42341524
0002e0 9c 9e 03 40 8d 86 64 bd d9 a4 1c 3d 75 e0 a3 3c
       2.0565557 -0.05579238 0.03824315 0.02000449
0002f0 cf b2 3d bf 16 d8 16 3c 3f 01 c5 3e 66 4e 24 3f
       -0.74100965 0.009206792 0.38477513 0.64182127
000300 2b 70 e8 be 4f 0e c5 be a5 70 20 be f8 67 58 be
       -0.45398077 -0.3848748 -0.1566797 -0.21133411
000310 3d 11 16 3d 57 51 8c 3e f1 0f 08 bf 55 bf 2b bf
       0.036637533 0.27405807 -0.53149325 -0.67088825
000320 04 b3 e7 be 89 34 b6 3f bc ae 24 bf 84 ae cb 3c
       -0.45253766 1.4234782 -0.64329123 0.024863489
000330 23 36 22 3e df 14 41 3e 27 89 1f be 3d db d2 3e
       0.15840964 0.18855618 -0.15579663 0.4118289
000340 67 8a b2 be fc f9 50 3e 5f c9 2d 3e bf b8 2b be
       -0.34871218 0.20407861 0.16971348 -0.16769694
000350 25 92 e1 be 82 7b 85 bd a6 69 05 bf e4 a2 9e be
       -0.44056812 -0.06517698 -0.5211433 -0.3098365
000360 9f e9 69 3f 5d fe a4 bd 6a b8 7b bf 06 7e bd be
       0.913721 -0.080563284 -0.9832827 -0.3701021
000370 89 51 f5 be 43 5c fc be 40 b2 44 bc bb 99 a9 3d
       -0.4791377 -0.4928914 -0.012005389 0.08281275
000380 10 e0 c9 3e 92 65 c1 be f2 6b 9b be 79 a9 1d 3e
       0.3942876 -0.37772804 -0.30355793 0.1539668
000390 f3 32 b9 bd 9d 90 bf 3e 12 71 20 bf af e0 37 bf
       -0.09042921 0.3741502 -0.6267253 -0.71827215
0003a0 ab 4a ef be 85 cd 84 3d d9 57 46 3f 95 a6 c0 bd
       -0.46736655 0.06484512 0.77477795 -0.09406773
0003b0 5f 5c 04 bf b2 da c2 be 75 65 71 3e b8 cb 31 bf
       -0.5170345 -0.38057476 0.23573859 -0.69451475
0003c0 46 53 b6 be 53 7e 64 be 58 74 b3 be 9a df 47 be
       -0.35610408 -0.22313814 -0.350497 -0.19518891
0003d0 fd f2 cb 3e 34 6f 7d 3e ea f4 84 bf 8c f2 e0 be
       0.39833823 0.24749452 -1.0387242 -0.4393505
0003e0 dd 7e 91 3f a1 28 16 3e eb a3 91 be 3f d9 1b bf
       1.1366841 0.14663936 -0.28445372 -0.60878366
0003f0 c9 2b 35 bf 3c ce d1 be f5 c6 23 be 56 76 23 3c
       -0.70769936 -0.40977657 -0.15993865 0.009976944
